models/checkpoint.pth.tar (torch_old, 8749 bytes, 7 tensors)

0.weight f4 [16, 20]
-0.051494554 -0.061516017 -0.15490934 -0.11733047 0.07316208 -0.1058043 0.13715333 0.09238872
0.08006367 0.20053023 0.016360387 0.12908661 0.22218287 0.1914343 -0.035037354 -0.2058153
0.027842015 -0.14347556 0.19348833 0.17347679 -0.08844066 0.06051153 0.08978978 0.0039079785
0.17948565 0.19721195 -0.123409905 0.19608745 -0.12637877 -0.07519592 -0.20847072 0.0460923
0.09641081 0.16393176 0.04075381 -0.07641204 -0.035877258 -0.07739617 0.07332727 -0.012427345
-0.14788929 0.13876659 0.087661505 0.21054065 -0.10554867 0.06392747 -0.22150984 -0.14160751
-0.16044872 -0.1421286 -0.021557346 -0.1399093 0.1680853 0.14887768 -0.18578514 0.21682683
-0.012134194 0.1976454 0.2038635 0.17257828 -0.034394532 0.011842176 0.1108526 0.048595935
-0.03321901 -0.11851402 -0.03840232 -0.045094103 -0.073506266 0.089449644 0.05867493 0.1753951
0.1802333 0.15510249 -0.021142215 0.0017072111 -0.10161955 -0.016498148 -0.15092328 0.037763745
0.19659916 -0.14432222 -0.1035093 0.20625165 -0.13079786 -0.1752114 -0.16742414 0.17328802
0.054885447 0.041798204 0.06528455 -0.03628242 0.15267536 -0.072633594 0.12674981 -0.11514593
-0.05607979 -0.17305386 -0.20939152 0.02063854 -0.20774786 0.06649986 -0.10424207 -0.18900551
-0.13947454 -0.021084502 0.101044565 0.05212441 -0.11712029 0.0055339783 -0.106781855 0.04098198
0.20217639 0.0065016896 0.070298344 0.21239242 -0.14836949 0.18644616 -0.2193718 0.17974359
0.06339508 0.020731583 -0.064463764 -0.028642863 -0.09257084 0.07926467 -0.15616155 0.04569879
-0.04887736 0.048666447 -0.06459744 0.106019765 -0.09583938 0.10624111 0.120887786 0.2134754
0.17365852 0.05555609 -0.2107796 0.10854554 -0.21152419 -0.086938545 -0.050009474 0.09856385
-0.20027372 0.07008791 -0.19308023 -0.120574795 0.055379093 0.10479796 -0.040841088 -0.12361235
-0.13225612 -0.14612526 0.18547958 0.14543921 -0.1621458 -0.06162648 0.20087108 0.17377466
0.006615296 -0.061245725 0.13733116 -0.19756715 -0.067010716 -0.029994562 -0.19729047 0.20061505
0.16354436 0.1197294 -0.07686126 0.08871335 0.17210302 0.07386908 -0.04279548 -0.060436875
-0.065674886 0.10022774 -0.18849555 -0.01197654 -0.2032129 -0.19159892 0.10656726 0.07378554
0.06671211 -0.21716678 0.04142952 -0.0757169 0.21632966 0.106624186 -0.17020796 0.015342027
0.025797337 -0.0918497 -0.085369706 -0.08676405 0.114041924 0.06001076 0.13771442 -0.09313348
-0.16652599 0.12301651 -0.028806508 -0.21099514 -0.119156964 0.1915626 0.16519457 -0.022457585
-0.009134799 0.16570145 0.08769199 0.021334827 0.017606556 0.07851285 -0.1527305 -0.18006611
0.19577932 0.019065127 -0.020149484 -0.060244128 -0.20826855 0.069188446 0.11729473 -0.052867845
-0.04360488 -0.0021242648 0.08842969 0.15115687 0.19229797 0.20730194 0.21631902 0.08490026
0.14010823 0.041416705 0.018635452 -0.084130675 0.04653001 0.12026507 0.024295852 0.04753393
0.20076692 -0.18914074 0.13334075 -0.19262704 0.09272879 -0.016830176 0.085529536 0.18406963
0.17101029 0.12585026 0.15640694 0.20155868 0.21769705 0.010041848 -0.14348584 0.19435638
00000000: f4eb 52bd 38f8 7bbd 8ea0 1ebe f54a f0bd
00000010: 00d6 953d edaf d8bd ec71 0c3e 4c36 bd3d
00000020: 6cf8 a33d cc57 4d3e 3806 863c 482f 043e
00000030: e883 633e 5a07 443e 5483 0fbd 3fc1 52be
00000040: f014 e43c 42eb 12be ce21 463e e6a3 313e
00000050: 6020 b5bd f0da 773d b4e3 b73d 800e 803b
00000060: 16cb 373e eef1 493e 55be fcbd 26cb 483e
00000070: 7069 01be 5200 9abd 5979 55be 48cb 3c3d
00000080: 0873 c53d badd 273e 78ed 263d ea7d 9cbd
00000090: 08f4 12bd e281 9ebd 9c2c 963d 109c 4bbc
000000a0: 4a70 17be d418 0e3e e087 b33d f897 573e
000000b0: e729 d8bd 68ec 823d 7ad3 62be 8f01 11be
000000c0: ab4c 24be 298a 11be 0899 b0bc 6244 0fbe
000000d0: 8e1e 2c3e 6473 183e 763e 3ebe da07 5e3e
000000e0: 80ce 46bc 8e63 4a3e 98c1 503e 5cb8 303e
000000f0: 48e1 0cbd b005 423c b006 e33d 880c 473d
00000100: a810 08bd 7bb7 f2bd c04b 1dbd 98b4 38bd
00000110: 748a 96bd 6031 b73d 2055 703d c69a 333e
00000120: 148f 383e 30d3 1e3e 7032 adbc 80c4 df3a
00000130: e91d d0bd 2027 87bc a28b 1abe 28ae 1a3d
00000140: 4a51 493e 34c9 13be affc d3bd a233 533e
00000150: e0ef 05be 9e6a 33be 3c71 2bbe 6a72 313e
00000160: 90cf 603d 9834 2b3d e8b3 853d e09c 14bd
00000170: ee56 1c3e ecc0 94bd b4ca 013e a1d1 ebbd
00000180: ecb3 65bd 0835 31be bb6a 56be 2812 a93c
00000190: dbbb 54be 1431 883d de7c d5bd a98a 41be
000001a0: 6ad2 0ebe 68b9 acbc 74f0 ce3d 6880 553d
000001b0: c3dc efbd 6056 b53b 72b0 dabd b8dc 273d
000001c0: 5407 4f3e 200c d53b 94f8 8f3d 667d 593e
000001d0: 2cee 17be beeb 3e3e 00a3 60be b40e 383e
000001e0: 48d5 813d 48d5 a93c 9405 84bd 70a4 eabc
000001f0: c895 bdbd 8455 a23d d0e8 1fbe a82e 3b3d
00000200: a033 48bd 7856 473d aa4b 84bd e420 d93d
00000210: 7047 c4bd f094 d93d 0494 f73d 4c99 5a3e
00000220: 8ad3 313e c88e 633d 9cd6 57be 204d de3d
00000230: cc99 58be d60c b2bd bcd6 4cbd d8db c93d
00000240: 8e14 4dbe 408a 8f3d d3b6 45be ebef f6bd
00000250: 30d5 623d 50a0 d63d fc48 27bd 7928 fdbd
00000260: 266e 07be dca1 15be 5cee 3d3e 04ee 143e
00000270: 8c09 26be 0c6c 7cbd 26b1 4d3e fcf1 313e
00000280: 20c5 d83b ccdc 7abd 8aa0 0c3e 0b4f 4abe
00000290: ea3c 89bd 28b7 f5bc 8306 4abe 086e 4d3e
000002a0: 2c78 273e b034 f53d 7069 9dbd 58af b53d
000002b0: c63b 303e ac48 973d 504a 2fbd a88c 77bd
000002c0: 8e80 86bd 3444 cd3d fa04 41be 4039 44bc
000002d0: 0b17 50be 8232 44be f03f da3d e01c 973d
000002e0: 5ca0 883d f860 5ebe 00b2 293d 7611 9bbd
000002f0: 8685 5d3e c85d da3d ff4a 2ebe 205d 7b3c
00000300: f054 d33c b21b bcbd 50d6 aebd 5ab1 b1bd
00000310: d08e e93d d8cd 753d 0205 0d3e c4bc bebd
00000320: ca85 2abe 14f0 fb3d a0fb ebbc 1c0f 58be
00000330: 9108 f4bd fc28 443e c428 293e f8f8 b7bc
00000340: 20aa 15bc a4ad 293e dc97 b33d 60c6 ae3c
00000350: a03b 903c 58cb a03d 6265 1cbe 4063 38be
00000360: 607a 483e 782e 9c3c 8810 a5bc 8cc2 76bd
00000370: 5a44 55be acb2 8d3d 3838 f03d f48b 58bd
00000380: 089b 32bd 4037 0bbb a01a b53d dec8 1a3e
00000390: c2e9 443e f646 543e bc82 5d3e 30e0 ad3d
000003a0: 8878 0f3e 90a4 293d 60a9 983c b44c acbd
000003b0: 4096 3e3d 884d f63d 1808 c73c f0b2 423d
000003c0: d895 4d3e 1cae 41be 7a8a 083e 0640 45be
000003d0: 98e8 bd3d 70df 89bc 1c2a af3d c07c 3c3e
000003e0: 521d 2f3e e4de 003e 2429 203e 6665 4e3e
000003f0: faeb 5e3e 9086 243c f4ed 12be 5c05 473e

0.bias f4 [16]
0.027356654 0.08235565 -0.17903963 0.05360663 -0.19832714 0.062164545 0.034562677 0.18835935
-0.064164504 0.052506536 0.025817886 0.05674684 0.114394456 -0.18610734 -0.059003904 0.12793642
00000000: 101b e03c 14aa a83d 2a56 37be a092 5b3d
00000010: 4516 4bbe 40a0 7e3d 9891 0d3d 46e1 403e
00000020: ae68 83bd 1811 573d 0880 d33c 606f 683d
00000030: a447 ea3d ec92 3ebe 14ae 71bd c401 033e

2.weight f4 [40, 16]
0.030529857 0.12845767 -0.06484714 -0.16939825 0.08263937 0.075957835 -0.12354022 -0.19273439
0.032919466 -0.17911428 -0.2130543 0.12566918 0.21866396 -0.09785971 0.2136406 0.092129946
-0.20205984 0.12250391 0.24301249 -0.18463737 0.030713081 -0.14258751 -0.19103166 -0.13828927
-0.12958384 0.045784652 -0.19710714 -0.045117676 0.0012888312 -0.19700831 0.0687733 -0.18109807
0.10447121 0.12789083 0.18068373 -0.11173332 0.013227224 -0.0102497935 0.074608654 -0.007212788
-0.0870848 -0.15524909 -0.14752814 -0.121160716 0.07214892 0.09711096 0.044843137 -0.014525592
-0.05313188 -0.07928932 0.1323039 0.08392012 0.12481469 -0.22903934 0.20923606 -0.14533094
-0.08248013 -0.16943645 -0.06820884 0.13901216 0.033961922 0.05481741 -0.1551036 0.05616793
0.24168026 0.010064095 0.07259056 0.23663735 -0.1358645 0.0016774833 0.013596922 -0.16059607
-0.16888148 -0.008564502 0.13341048 0.028193086 -0.24736118 -0.008047432 0.1189183 0.21417412
-0.06539306 -0.24179476 0.064671725 -0.046022445 0.06458107 -0.08981219 -0.21625403 -0.21884456
-0.01956451 -0.020181268 0.24042466 0.00913319 -0.09418562 0.21730301 0.1854336 0.08628166
-0.03576994 -0.22114608 -0.006621778 -0.06398994 0.2083993 0.08296022 0.08981255 -0.20987213
-0.022669315 0.05459073 0.025660962 0.039692968 -0.20075712 0.045452952 -0.19879949 0.12929437
-0.028916866 0.04825458 -0.09774035 0.14302054 -0.18623132 0.23682928 0.109766394 -0.06713462
0.18416771 0.041755944 -0.19820848 0.018912375 -0.05180344 0.22793078 0.07039705 0.13346636
-0.07907218 -0.088885754 0.03253302 -0.006622106 0.23234218 -0.108851016 -0.07590741 0.16007125
-0.15916902 0.08177996 0.09519079 0.055515826 0.057291955 0.1593571 0.24521151 -0.146712
-0.20828667 0.10200548 0.09011933 -0.24053574 0.03829038 -0.118691206 0.22117108 -0.065062046
0.03887102 0.15197971 0.108893275 0.23291281 -0.2236611 -0.0176225 -0.10847157 0.22814828
0.14796957 -0.24482 -0.01446712 0.006207466 0.019597977 0.13223583 -0.18298057 -0.21602261
0.027798384 -0.22204447 -0.1558342 0.23253927 0.052108914 0.09802121 0.073569596 0.19159898
-0.014903247 0.0071561635 0.0056614876 -0.18859777 0.122573584 -0.24908891 0.19530502 0.121619046
-0.018340766 0.20032015 0.22569966 0.24358886 0.11092064 -0.14916724 0.18245599 0.14689103
-0.15734005 -0.22425237 0.07028267 -0.0051594675 0.11742994 0.09246236 0.14122513 -0.23106739
-0.03927955 0.16939718 0.12885353 0.15498117 0.11528677 0.05857858 -0.1447818 -0.124553174
0.12514934 -0.12978128 0.05446765 -0.20925167 -0.084676355 -0.08901873 -0.19391635 0.1776242
-0.025868624 -0.022025734 -0.018315643 0.1122807 0.22844553 0.15022308 0.00055089593 0.0077033043
0.107287556 -0.079101115 -0.1271115 -0.20704287 0.00843814 -0.008031219 0.17079344 -0.023455799
-0.058752567 0.018611252 0.0012124777 -0.07632446 -0.23301876 0.14881605 0.14732507 0.19574517
0.09681177 0.15761817 0.20615348 0.015036315 -0.060417056 -0.079621404 -0.043453157 0.21354532
-0.24155459 -0.15201244 0.20900872 -0.0052363575 -0.1159513 0.15563112 0.055998653 0.14460924
00000000: c019 fa3c 688a 033e 94ce 84bd bc76 2dbe
00000010: d43e a93d c88f 9b3d a802 fdbd 2a5c 45be
00000020: 90d6 063d bc69 37be e82a 5abe 6caf 003e
00000030: 72e9 5f3e ac6a c8bd 9ac4 5a3e a0ae bc3d
00000040: c6e8 4ebe 54e3 fa3d 44d8 783e 9411 3dbe
00000050: 009a fb3c 7602 12be ce9d 43be b49b 0dbe
00000060: a0b1 04be b088 3b3d 74d6 49be 50cd 38bd
00000070: 00ee a83a 8cbc 49be 04d9 8c3d c671 39be
00000080: 00f5 d53d d0f5 023e 2805 393e 70d4 e4bd
00000090: 00b7 583c c0ee 27bc 6ccc 983d 4059 ecbb
000000a0: 8459 b2bd 9ef9 1ebe 9e11 17be 1c23 f8bd
000000b0: d0c2 933d 1ce2 c63d 70ad 373d c0fc 6dbc
000000c0: d0a0 59bd 7062 a2bd ac7a 073e 50de ab3d
000000d0: d89e ff3d 4a89 6abe fa41 563e a2d1 14be
000000e0: 58eb a8bd c080 2dbe 14b1 8bbd 3459 0e3e
000000f0: a81b 0b3d 3888 603d 7ad3 1ebe 5810 663d
00000100: 087b 773e e0e3 243c 5caa 943d 1051 723e
00000110: 1020 0bbe 00df db3a a0c5 5e3c 4c73 24be
00000120: 44ef 2cbe 2052 0cbc c29c 083e 30f5 e63c
00000130: 404c 7dbe 60d9 03bc 708b f33d 7650 5b3e
00000140: ccec 85bd 0c99 77be 9c72 843d 0882 3cbd
00000150: 1443 843d 74ef b7bd b271 5dbe ca18 60be
00000160: c045 a0bc 3053 a5bc e231 763e 60a3 153c
00000170: 64e4 c0bd ae84 5e3e 4ee2 3d3e 70b4 b03d
00000180: 8083 12bd 1e74 62be 80fb d8bb 280d 83bd
00000190: a066 553e 0ce7 a93d a4ef b73d b8e8 56be
000001a0: 00b5 b9bc 889a 5f3d f036 d23c 1895 223d
000001b0: 4693 4dbe e02c 3a3d 1892 4bbe be65 043e
000001c0: 10e3 ecbc 98a6 453d 182c c8bd fa73 123e
000001d0: 6cb3 3ebe 6083 723e 34cd e03d e07d 89bd
000001e0: 7696 3c3e 4808 2b3d 2af7 4abe 20ee 9a3c
000001f0: d82f 54bd b066 693e 542c 903d 68ab 083e
00000200: 98f0 a1bd bc09 b6bd 5841 053d 40fe d8bb
00000210: 1ceb 6d3e 48ed debd 5875 9bbd b8e9 233e
00000220: 34fd 22be 407c a73d 64f3 c23d 9064 633d
00000230: f8aa 6a3d 822e 233e ba18 7b3e ac3b 16be
00000240: 1a49 55be 40e8 d03d 7c90 b83d 004f 76be
00000250: 60d6 1c3d 6014 f3bd ac7a 623e 403f 85bd
00000260: 3837 1f3d 92a0 1b3e 7003 df3d b280 6e3e
00000270: 6a07 65be 105d 90bc 5826 debd b49f 693e
00000280: 5685 173e 18b2 7abe 8007 6dbc 0068 cb3b
00000290: f08b a03c d468 073e 425f 3bbe 0835 5dbe
000002a0: 70b9 e33c a05f 63be 0093 1fbe c61e 6e3e
000002b0: 2870 553d 58bf c83d a8ab 963d 8632 443e
000002c0: c02c 74bc 407e ea3b 0084 b93b c61f 41be
000002d0: dc07 fb3d 2a11 7fbe 0afe 473e 6813 f93d
000002e0: 603f 96bc ba20 4d3e d01d 673e 5c6f 793e
000002f0: 5c2a e33d 4cbf 18be bed5 3a3e 9a6a 163e
00000300: c01d 21be 6aa2 65be 5cf0 8f3d c010 a9bb
00000310: 1c7f f03d e85c bd3d 529d 103e ee9c 6cbe
00000320: 98e3 20bd 7476 2d3e 2ef2 033e 62b3 1e3e
00000330: 781b ec3d 18f0 6f3d ae41 14be bc15 ffbd
00000340: 2627 003e 62e5 04be 7819 5f3d 1246 56be
00000350: cc6a adbd 744f b6bd 0292 46be 1ee3 353e
00000360: 70ea d3bc 506f b4bc b00a 96bc 6cf3 e53d
00000370: a0ed 693e 14d4 193e 006a 103a 006c fc3b
00000380: 94b9 db3d c4ff a1bd 8429 02be 0c03 54be
00000390: 2040 0a3c 6095 03bc 7ae4 2e3e 6026 c0bc
000003a0: 88a6 70bd a076 983c 00ec 9e3a 0050 9cbd
000003b0: 789c 6ebe 3c63 183e 62dc 163e 6c71 483e
000003c0: 4045 c63d a866 213e e619 533e e05a 763c
000003d0: e077 77bd 8c10 a3bd f0fb 31bd a0ab 5a3e
000003e0: 165a 77be 26a9 1bbe 6206 563e c095 abbb
000003f0: e077 edbd c45d 1f3e d85e 653d 7214 143e

2.bias f4 [40]
0.15299723 0.24379706 0.043688774 0.20991069 0.14640558 0.23862648 -0.22532341 -0.16385785
0.23536682 -0.033850253 0.015229344 0.14315376 -0.039939642 0.07180223 -0.20510489 -0.009896129
0.2303553 0.10691199 0.23581848 0.1873672 -0.18073088 -0.22662753 -0.22559413 -0.14379677
0.062708616 -0.16741097 -0.05546865 -0.009164274 -0.12216291 0.18817392 -0.04827559 -0.13390696
0.18787315 0.17474812 -0.19968906 -0.22101036 -0.06190166 0.24784905 0.0025452673 0.0446302
00000000: 4eab 1c3e f0a5 793e 00f3 323d d4f2 563e
00000010: 58eb 153e 805a 743e 2ebb 66be 5aca 27be
00000020: 0004 713e 90a6 0abd 8084 793c e696 123e
00000030: c097 23bd 0c0d 933d 0407 52be 6023 22bc
00000040: 42e2 6b3e acf4 da3d 667a 713e 30dd 3f3e
00000050: 8411 39be 0c11 68be 2602 67be 763f 13be
00000060: 606d 803d c86d 2bbe 1833 63bd c025 16bc
00000070: 8c30 fabd aab0 403e a0bc 45bd e81e 09be
00000080: d261 403e 2cf1 323e 4a7b 4cbe 8a50 62be
00000090: 988c 7dbd 24cc 7d3e 80ce 263b 28ce 363d

4.weight f4 [20, 40]
0.041884124 -0.046915382 -0.040291578 0.13247551 0.11494909 -0.0772172 -0.073030464 0.08855015
0.026526287 -0.07223343 0.076108545 -0.061154388 -0.11670311 0.1167417 -0.05398427 -0.13775465
-0.12985983 -0.021231413 -0.023219362 -0.03350071 -0.0050828904 -0.0050070435 0.052724987 0.07878414
-0.078390755 0.093865946 0.018413395 0.041507706 -0.12545118 -0.12437166 -0.08494874 0.08659877
-0.12081807 -0.09912501 0.11607061 -0.11403103 0.01568757 0.13724373 0.10716258 0.099190846
0.024139062 0.019490987 0.08668512 -0.035888232 -0.13847838 0.0049367845 0.08404982 -0.1544824
0.04096587 0.034629464 -0.090065435 0.06230119 0.079842776 -0.007943824 0.1359805 0.053115442
0.15619059 0.13211225 -0.07721871 0.10531433 -0.07888472 0.042690814 -0.006929755 -0.098875105
-0.05835323 0.12153669 0.04513082 0.14650513 0.00900884 0.15057983 0.10515724 0.065071836
0.13403736 -0.041673712 0.08799991 -0.08757272 0.056063145 -0.079676926 -0.014531776 -0.017794564
-0.0012007505 0.15098758 0.14668037 0.08663058 0.005452648 -0.00037808716 0.10843502 -0.114634946
-0.03424094 -0.009068862 0.109557405 -0.07536632 0.037437364 -0.15775225 -0.025393799 -0.08310976
0.09992598 0.12298106 0.032557726 -0.0219336 0.15104894 0.04341133 0.123806044 0.088738516
-0.093034476 0.11434983 -0.14818473 0.051381484 -0.09834257 -0.010264769 -0.048455775 0.01507251
0.05631949 0.15693773 0.10776709 0.044340715 -0.066594936 -0.0060539544 -0.07699833 0.024947196
-0.1379969 -0.1312075 -0.06870717 -0.0375825 -0.12957093 -0.1338237 0.15420012 0.086847335
0.0064916015 -0.10743165 0.12484406 -0.043971546 0.007506296 0.06869501 0.105152145 -0.14607343
0.04691425 0.14320605 -0.053378865 -0.08992961 0.06838395 -0.12579891 -0.14502391 0.09432037
0.028408766 0.03216587 0.012274146 0.08121702 0.073541924 0.10929619 -0.024808362 -0.004791841
0.018951103 0.0374891 -0.046444885 -0.06820922 0.012140617 0.071214825 0.12112735 -0.058944046
0.13864745 -0.13625622 -0.10714272 0.04905416 -0.034199566 0.14498879 0.056870088 0.05886294
-0.0032438636 0.0171998 -0.026800454 0.11640273 -0.124197066 0.13887595 -0.04889393 0.072831646
-0.07775961 -0.12660316 0.03397636 -0.1530709 0.06437515 0.041706502 -0.13752647 -0.027994528
0.14238302 -0.038496017 -0.0425779 0.08389625 0.12760009 0.0730944 0.1382706 -0.016900733
0.11711703 -0.1495049 0.09889473 0.13677074 -0.12514742 -0.07491141 -0.05436746 -0.040208682
0.09770624 0.018435776 -0.015367523 0.024555713 0.0045506805 -0.07437034 -0.030454427 0.10158913
-0.030982181 -0.02548635 -0.123210266 0.13103478 -0.08356623 0.07651581 0.13204722 -0.073062904
0.15067278 -0.107638255 0.028428808 0.03464678 -0.13530748 0.09007773 0.033146024 0.015652835
0.09240349 0.019265294 -0.082483284 -0.15490197 0.07139097 -0.12791653 -0.008770138 0.14995925
-0.0491966 0.13539363 0.03073275 -0.047652423 -0.09259455 -0.0012609512 -0.06751784 0.025215626
0.12702341 0.12752818 0.10700168 0.101530716 -0.15246584 -0.12583956 -0.08060219 -0.12270033
0.066302985 -0.025505424 -0.041246057 -0.06568289 0.013051435 -0.13883212 -0.1293607 -0.014170095
00000000: b08e 2b3d 582a 40bd c808 25bd a9a7 073e
00000010: 6e6a eb3d 0d24 9ebd ff90 95bd c859 b53d
00000020: a84d d93c 1fef 93bd ccde 9b3d 067d 7abd
00000030: 0a02 efbd 4616 ef3d 9c1e 5dbd 8e0f 0dbe
00000040: faf9 04be 80ed adbc 8836 bebc 0a38 09bd
00000050: 608e a6bb 2012 a4bb 28f6 573d 9459 a13d
00000060: 558b a0bd ca3c c03d b0d7 963c fc03 2a3d
00000070: 4676 00be 92b6 febd 9bf9 adbd b25a b13d
00000080: 776f f7bd 0e02 cbbd 6eb6 ed3d 1a89 e9bd
00000090: 3883 803c 9f89 0c3e 0e78 db3d 9224 cb3d
000000a0: 48bf c53c 90ab 9f3c f887 b13d 8aff 12bd
000000b0: 47cd 0dbe c0c4 a13b 5022 ac3d a230 1ebe
000000c0: d4cb 273d a0d7 0d3d 3a74 b8bd 882f 7f3d
000000d0: 9c84 a33d d026 02bc 793e 0b3e 948f 593d
000000e0: 6df0 1f3e 6f48 073e d824 9ebd 0aaf d73d
000000f0: 508e a1bd 90dc 2e3d 0013 e3bb 087f cabd
00000100: cc03 6fbd 3ae8 f83d 18db 383d 7105 163e
00000110: d099 133c 9931 1a3e ae5c d73d 6244 853d
00000120: 1741 093e 0eb2 2abd 4c39 b43d 5459 b3bd
00000130: 78a2 653d a82d a3bd b016 6ebc e8c5 91bc
00000140: 8062 9dba 7d9c 1a3e 6133 163e 606b b13d
00000150: 20ac b23b 003a c6b9 2e13 de3d bac5 eabd
00000160: 3a40 0cbd 9095 14bc a25f e03d a859 9abd
00000170: ec57 193d ce89 21be a806 d0bc 7335 aabd
00000180: fea5 cc3d 7edd fb3d 405b 053d 18ae b3bc
00000190: 93ac 1a3e 14d0 313d 068e fd3d 8abc b53d
000001a0: dc88 bebd 3e30 ea3d bdbd 17be 6475 523d
000001b0: d467 c9bd 902d 28bc 9079 46bd b0f2 763c
000001c0: 44af 663d 49b4 203e feb4 dc3d 9c9e 353d
000001d0: ed62 88bd 4060 c6bb 4db1 9dbd 105e cc3c
000001e0: 0f4f 0dbe 425b 06be 58b6 8cbd 1cf0 19bd
000001f0: 3eae 04be 1409 09be a3e6 1d3e 04dd b13d
00000200: 80b7 d43b 2005 dcbd 3eae ff3d 821b 34bd
00000210: 60f7 f53b f8af 8c3d 025a d73d 4694 15be
00000220: 2829 403d 9ba4 123e cca3 5abd 042d b8bd
00000230: e20c 8c3d 6ed1 00be 2681 14be 0a2b c13d
00000240: 80b9 e83c 5cc0 033d 8019 493c 1c55 a63d
00000250: 269d 963d aed6 df3d e83a cbbc e004 9dbb
00000260: 583f 9b3c 2c8e 193d fe3c 3ebd 47b1 8bbd
00000270: 70e9 463c 14d9 913d 9e11 f83d 506f 71bd
00000280: 99f9 0d3e c086 0bbe a46d dbbd 04ed 483d
00000290: d814 0cbd f177 143e 9cf0 683d 441a 713d
000002a0: 0097 54bb 98e6 8c3c a08c dbbc 8e64 ee3d
000002b0: 085b febd 7f35 0e3e 0045 48bd c228 953d
000002c0: 6e40 9fbd 42a4 01be cc2a 0b3d 9ebe 1cbe
000002d0: 1ed7 833d 70d4 2a3d bdd3 0cbe c854 e5bc
000002e0: dbcc 113e 00ae 1dbd 2a66 2ebd ccd1 ab3d
000002f0: 99a9 023e 84b2 953d cf96 0d3e 6873 8abc
00000300: 0edb ef3d d017 19be 5289 ca3d a10d 0c3e
00000310: a526 00be 276b 99bd 6ab0 5ebd dcb1 24bd
00000320: 361a c83d a006 973c 10c8 7bbc 1029 c93c
00000330: e01d 953b 7a4f 98bd 907b f9bc f60d d03d
00000340: 58ce fdbc c0c8 d0bc aa55 fcbd fb2d 063e
00000350: c624 abbd 52b4 9c3d 6337 073e 01a2 95bd
00000360: f749 1a3e 7271 dcbd 88e3 e83c c8e9 0d3d
00000370: 0b8e 0abe ac7a b83d 20c4 073d 603a 803c
00000380: 0a3e bd3d 40d2 9d3c ffec a8bd 9f9e 1ebe
00000390: 6e35 923d 8dfc 02be a0b0 0fbc eb8e 193e
000003a0: 6082 49bd a1a4 0a3e 40c3 fb3c 302f 43bd
000003b0: 36a2 bdbd 8046 a5ba cb46 8abd 0091 ce3c
000003c0: 6d12 023e bf96 023e b223 db3d 56ef cf3d
000003d0: 0120 1cbe 16dc 00be c312 a5bd 504a fbbd
000003e0: dcc9 873d c0f0 d0bc a0f1 28bd c084 86bd
000003f0: b0d5 553c 022a 0ebe 2277 04be b029 68bc

4.bias f4 [20]
0.14623536 -0.121734336 0.1250179 0.13093717 0.11503051 0.020777136 0.053431988 -0.076132536
0.052553475 0.15260364 0.03565772 0.010478333 -0.14229982 0.11598463 0.14188446 0.06396191
-0.11457127 0.13730864 0.10569255 0.078563824
00000000: b9be 153e da4f f9bd b104 003e 6514 063e
00000010: 1e95 eb3d d034 aa3c 80db 5a3d 60eb 9bbd
00000020: 5042 573d 2144 1c3e d40d 123d 50ad 2b3c
00000030: 0bb7 11be 5a89 ed3d 294a 113e 76fe 823d
00000040: 58a4 eabd a39a 0c3e 5675 d83d 12e6 a03d

6.weight f4 [1, 20]
-0.08815229 0.17988059 -0.18153669 -0.15000284 -0.047209233 0.086661905 0.009522721 0.16158643
0.078891754 -0.012432709 0.11400297 -0.04198487 -0.07755749 0.18256634 0.19954354 -0.041995153
-0.0939178 0.08390567 0.19983175 -0.08308624
00000000: 3089 b4bd 9e32 383e c1e4 39be 589a 19be
00000010: 785e 41bd cc7b b13d 3005 1c3c ea76 253e
00000020: 0092 a13d 90b2 4bbc 647a e93d 54f8 2bbd
00000030: 76d6 9ebd acf2 3a3e 2455 4c3e 1c03 2cbd
00000040: fa57 c0bd bcd6 ab3d b2a0 4c3e 1e29 aabd
